…
/home/mao89/kfac-env/lib/python3.9/site-packages/torchinfo/torchinfo.py:370: UserWarning: TypedStorage is deprecated. It will be removed in the future and UntypedStorage will be the only storage class. This should only matter to you if you are using storages directly.  To access UntypedStorage directly, use tensor.untyped_storage() instead of tensor.storage()
  action_fn=lambda data: sys.getsizeof(data.storage()),
==========================================================================================
Layer (type:depth-idx)                   Output Shape              Param #
==========================================================================================
ResNet                                   --                        --
├─Conv2d: 1-1                            [256, 16, 32, 32]         432
├─BatchNorm2d: 1-2                       [256, 16, 32, 32]         32
├─Sequential: 1-3                        [256, 16, 32, 32]         --
│    └─BasicBlock: 2-1                   [256, 16, 32, 32]         --
│    │    └─Conv2d: 3-1                  [256, 16, 32, 32]         2,304
│    │    └─BatchNorm2d: 3-2             [256, 16, 32, 32]         32
│    │    └─Conv2d: 3-3                  [256, 16, 32, 32]         2,304
│    │    └─BatchNorm2d: 3-4             [256, 16, 32, 32]         32
│    │    └─Sequential: 3-5              [256, 16, 32, 32]         --
│    └─BasicBlock: 2-2                   [256, 16, 32, 32]         --
│    │    └─Conv2d: 3-6                  [256, 16, 32, 32]         2,304
│    │    └─BatchNorm2d: 3-7             [256, 16, 32, 32]         32
│    │    └─Conv2d: 3-8                  [256, 16, 32, 32]         2,304
│    │    └─BatchNorm2d: 3-9             [256, 16, 32, 32]         32
│    │    └─Sequential: 3-10             [256, 16, 32, 32]         --
│    └─BasicBlock: 2-3                   [256, 16, 32, 32]         --
│    │    └─Conv2d: 3-11                 [256, 16, 32, 32]         2,304
│    │    └─BatchNorm2d: 3-12            [256, 16, 32, 32]         32
│    │    └─Conv2d: 3-13                 [256, 16, 32, 32]         2,304
│    │    └─BatchNorm2d: 3-14            [256, 16, 32, 32]         32
│    │    └─Sequential: 3-15             [256, 16, 32, 32]         --
│    └─BasicBlock: 2-4                   [256, 16, 32, 32]         --
│    │    └─Conv2d: 3-16                 [256, 16, 32, 32]         2,304
│    │    └─BatchNorm2d: 3-17            [256, 16, 32, 32]         32
│    │    └─Conv2d: 3-18                 [256, 16, 32, 32]         2,304
│    │    └─BatchNorm2d: 3-19            [256, 16, 32, 32]         32
│    │    └─Sequential: 3-20             [256, 16, 32, 32]         --
│    └─BasicBlock: 2-5                   [256, 16, 32, 32]         --
│    │    └─Conv2d: 3-21                 [256, 16, 32, 32]         2,304
│    │    └─BatchNorm2d: 3-22            [256, 16, 32, 32]         32
│    │    └─Conv2d: 3-23                 [256, 16, 32, 32]         2,304
│    │    └─BatchNorm2d: 3-24            [256, 16, 32, 32]         32
│    │    └─Sequential: 3-25             [256, 16, 32, 32]         --
│    └─BasicBlock: 2-6                   [256, 16, 32, 32]         --
│    │    └─Conv2d: 3-26                 [256, 16, 32, 32]         2,304
│    │    └─BatchNorm2d: 3-27            [256, 16, 32, 32]         32
│    │    └─Conv2d: 3-28                 [256, 16, 32, 32]         2,304
│    │    └─BatchNorm2d: 3-29            [256, 16, 32, 32]         32
│    │    └─Sequential: 3-30             [256, 16, 32, 32]         --
│    └─BasicBlock: 2-7                   [256, 16, 32, 32]         --
│    │    └─Conv2d: 3-31                 [256, 16, 32, 32]         2,304
│    │    └─BatchNorm2d: 3-32            [256, 16, 32, 32]         32
│    │    └─Conv2d: 3-33                 [256, 16, 32, 32]         2,304
│    │    └─BatchNorm2d: 3-34            [256, 16, 32, 32]         32
│    │    └─Sequential: 3-35             [256, 16, 32, 32]         --
│    └─BasicBlock: 2-8                   [256, 16, 32, 32]         --
│    │    └─Conv2d: 3-36                 [256, 16, 32, 32]         2,304
│    │    └─BatchNorm2d: 3-37            [256, 16, 32, 32]         32
│    │    └─Conv2d: 3-38                 [256, 16, 32, 32]         2,304
│    │    └─BatchNorm2d: 3-39            [256, 16, 32, 32]         32
│    │    └─Sequential: 3-40             [256, 16, 32, 32]         --
│    └─BasicBlock: 2-9                   [256, 16, 32, 32]         --
│    │    └─Conv2d: 3-41                 [256, 16, 32, 32]         2,304
│    │    └─BatchNorm2d: 3-42            [256, 16, 32, 32]         32
│    │    └─Conv2d: 3-43                 [256, 16, 32, 32]         2,304
│    │    └─BatchNorm2d: 3-44            [256, 16, 32, 32]         32
│    │    └─Sequential: 3-45             [256, 16, 32, 32]         --
│    └─BasicBlock: 2-10                  [256, 16, 32, 32]         --
│    │    └─Conv2d: 3-46                 [256, 16, 32, 32]         2,304
│    │    └─BatchNorm2d: 3-47            [256, 16, 32, 32]         32
│    │    └─Conv2d: 3-48                 [256, 16, 32, 32]         2,304
│    │    └─BatchNorm2d: 3-49            [256, 16, 32, 32]         32
│    │    └─Sequential: 3-50             [256, 16, 32, 32]         --
│    └─BasicBlock: 2-11                  [256, 16, 32, 32]         --
│    │    └─Conv2d: 3-51                 [256, 16, 32, 32]         2,304
│    │    └─BatchNorm2d: 3-52            [256, 16, 32, 32]         32
│    │    └─Conv2d: 3-53                 [256, 16, 32, 32]         2,304
│    │    └─BatchNorm2d: 3-54            [256, 16, 32, 32]         32
│    │    └─Sequential: 3-55             [256, 16, 32, 32]         --
│    └─BasicBlock: 2-12                  [256, 16, 32, 32]         --
│    │    └─Conv2d: 3-56                 [256, 16, 32, 32]         2,304
│    │    └─BatchNorm2d: 3-57            [256, 16, 32, 32]         32
│    │    └─Conv2d: 3-58                 [256, 16, 32, 32]         2,304
│    │    └─BatchNorm2d: 3-59            [256, 16, 32, 32]         32
│    │    └─Sequential: 3-60             [256, 16, 32, 32]         --
│    └─BasicBlock: 2-13                  [256, 16, 32, 32]         --
│    │    └─Conv2d: 3-61                 [256, 16, 32, 32]         2,304
│    │    └─BatchNorm2d: 3-62            [256, 16, 32, 32]         32
│    │    └─Conv2d: 3-63                 [256, 16, 32, 32]         2,304
│    │    └─BatchNorm2d: 3-64            [256, 16, 32, 32]         32
│    │    └─Sequential: 3-65             [256, 16, 32, 32]         --
│    └─BasicBlock: 2-14                  [256, 16, 32, 32]         --
│    │    └─Conv2d: 3-66                 [256, 16, 32, 32]         2,304
│    │    └─BatchNorm2d: 3-67            [256, 16, 32, 32]         32
│    │    └─Conv2d: 3-68                 [256, 16, 32, 32]         2,304
│    │    └─BatchNorm2d: 3-69            [256, 16, 32, 32]         32
│    │    └─Sequential: 3-70             [256, 16, 32, 32]         --
│    └─BasicBlock: 2-15                  [256, 16, 32, 32]         --
│    │    └─Conv2d: 3-71                 [256, 16, 32, 32]         2,304
│    │    └─BatchNorm2d: 3-72            [256, 16, 32, 32]         32
│    │    └─Conv2d: 3-73                 [256, 16, 32, 32]         2,304
│    │    └─BatchNorm2d: 3-74            [256, 16, 32, 32]         32
│    │    └─Sequential: 3-75             [256, 16, 32, 32]         --
│    └─BasicBlock: 2-16                  [256, 16, 32, 32]         --
│    │    └─Conv2d: 3-76                 [256, 16, 32, 32]         2,304
│    │    └─BatchNorm2d: 3-77            [256, 16, 32, 32]         32
│    │    └─Conv2d: 3-78                 [256, 16, 32, 32]         2,304
│    │    └─BatchNorm2d: 3-79            [256, 16, 32, 32]         32
│    │    └─Sequential: 3-80             [256, 16, 32, 32]         --
│    └─BasicBlock: 2-17                  [256, 16, 32, 32]         --
│    │    └─Conv2d: 3-81                 [256, 16, 32, 32]         2,304
│    │    └─BatchNorm2d: 3-82            [256, 16, 32, 32]         32
│    │    └─Conv2d: 3-83                 [256, 16, 32, 32]         2,304
│    │    └─BatchNorm2d: 3-84            [256, 16, 32, 32]         32
│    │    └─Sequential: 3-85             [256, 16, 32, 32]         --
│    └─BasicBlock: 2-18                  [256, 16, 32, 32]         --
│    │    └─Conv2d: 3-86                 [256, 16, 32, 32]         2,304
│    │    └─BatchNorm2d: 3-87            [256, 16, 32, 32]         32
│    │    └─Conv2d: 3-88                 [256, 16, 32, 32]         2,304
│    │    └─BatchNorm2d: 3-89            [256, 16, 32, 32]         32
│    │    └─Sequential: 3-90             [256, 16, 32, 32]         --
├─Sequential: 1-4                        [256, 32, 16, 16]         --
│    └─BasicBlock: 2-19                  [256, 32, 16, 16]         --
│    │    └─Conv2d: 3-91                 [256, 32, 16, 16]         4,608
│    │    └─BatchNorm2d: 3-92            [256, 32, 16, 16]         64
│    │    └─Conv2d: 3-93                 [256, 32, 16, 16]         9,216
│    │    └─BatchNorm2d: 3-94            [256, 32, 16, 16]         64
│    │    └─LambdaLayer: 3-95            [256, 32, 16, 16]         --
│    └─BasicBlock: 2-20                  [256, 32, 16, 16]         --
│    │    └─Conv2d: 3-96                 [256, 32, 16, 16]         9,216
│    │    └─BatchNorm2d: 3-97            [256, 32, 16, 16]         64
│    │    └─Conv2d: 3-98                 [256, 32, 16, 16]         9,216
│    │    └─BatchNorm2d: 3-99            [256, 32, 16, 16]         64
│    │    └─Sequential: 3-100            [256, 32, 16, 16]         --
│    └─BasicBlock: 2-21                  [256, 32, 16, 16]         --
│    │    └─Conv2d: 3-101                [256, 32, 16, 16]         9,216
│    │    └─BatchNorm2d: 3-102           [256, 32, 16, 16]         64
│    │    └─Conv2d: 3-103                [256, 32, 16, 16]         9,216
│    │    └─BatchNorm2d: 3-104           [256, 32, 16, 16]         64
│    │    └─Sequential: 3-105            [256, 32, 16, 16]         --
│    └─BasicBlock: 2-22                  [256, 32, 16, 16]         --
│    │    └─Conv2d: 3-106                [256, 32, 16, 16]         9,216
│    │    └─BatchNorm2d: 3-107           [256, 32, 16, 16]         64
│    │    └─Conv2d: 3-108                [256, 32, 16, 16]         9,216
│    │    └─BatchNorm2d: 3-109           [256, 32, 16, 16]         64
│    │    └─Sequential: 3-110            [256, 32, 16, 16]         --
│    └─BasicBlock: 2-23                  [256, 32, 16, 16]         --
│    │    └─Conv2d: 3-111                [256, 32, 16, 16]         9,216
│    │    └─BatchNorm2d: 3-112           [256, 32, 16, 16]         64
│    │    └─Conv2d: 3-113                [256, 32, 16, 16]         9,216
│    │    └─BatchNorm2d: 3-114           [256, 32, 16, 16]         64
│    │    └─Sequential: 3-115            [256, 32, 16, 16]         --
│    └─BasicBlock: 2-24                  [256, 32, 16, 16]         --
│    │    └─Conv2d: 3-116                [256, 32, 16, 16]         9,216
│    │    └─BatchNorm2d: 3-117           [256, 32, 16, 16]         64
│    │    └─Conv2d: 3-118                [256, 32, 16, 16]         9,216
│    │    └─BatchNorm2d: 3-119           [256, 32, 16, 16]         64
│    │    └─Sequential: 3-120            [256, 32, 16, 16]         --
│    └─BasicBlock: 2-25                  [256, 32, 16, 16]         --
│    │    └─Conv2d: 3-121                [256, 32, 16, 16]         9,216
│    │    └─BatchNorm2d: 3-122           [256, 32, 16, 16]         64
│    │    └─Conv2d: 3-123                [256, 32, 16, 16]         9,216
│    │    └─BatchNorm2d: 3-124           [256, 32, 16, 16]         64
│    │    └─Sequential: 3-125            [256, 32, 16, 16]         --
│    └─BasicBlock: 2-26                  [256, 32, 16, 16]         --
│    │    └─Conv2d: 3-126                [256, 32, 16, 16]         9,216
│    │    └─BatchNorm2d: 3-127           [256, 32, 16, 16]         64
│    │    └─Conv2d: 3-128                [256, 32, 16, 16]         9,216
│    │    └─BatchNorm2d: 3-129           [256, 32, 16, 16]         64
│    │    └─Sequential: 3-130            [256, 32, 16, 16]         --
│    └─BasicBlock: 2-27                  [256, 32, 16, 16]         --
│    │    └─Conv2d: 3-131                [256, 32, 16, 16]         9,216
│    │    └─BatchNorm2d: 3-132           [256, 32, 16, 16]         64
│    │    └─Conv2d: 3-133                [256, 32, 16, 16]         9,216
│    │    └─BatchNorm2d: 3-134           [256, 32, 16, 16]         64
│    │    └─Sequential: 3-135            [256, 32, 16, 16]         --
│    └─BasicBlock: 2-28                  [256, 32, 16, 16]         --
│    │    └─Conv2d: 3-136                [256, 32, 16, 16]         9,216
│    │    └─BatchNorm2d: 3-137           [256, 32, 16, 16]         64
│    │    └─Conv2d: 3-138                [256, 32, 16, 16]         9,216
│    │    └─BatchNorm2d: 3-139           [256, 32, 16, 16]         64
│    │    └─Sequential: 3-140            [256, 32, 16, 16]         --
│    └─BasicBlock: 2-29                  [256, 32, 16, 16]         --
│    │    └─Conv2d: 3-141                [256, 32, 16, 16]         9,216
│    │    └─BatchNorm2d: 3-142           [256, 32, 16, 16]         64
│    │    └─Conv2d: 3-143                [256, 32, 16, 16]         9,216
│    │    └─BatchNorm2d: 3-144           [256, 32, 16, 16]         64
│    │    └─Sequential: 3-145            [256, 32, 16, 16]         --
│    └─BasicBlock: 2-30                  [256, 32, 16, 16]         --
│    │    └─Conv2d: 3-146                [256, 32, 16, 16]         9,216
│    │    └─BatchNorm2d: 3-147           [256, 32, 16, 16]         64
│    │    └─Conv2d: 3-148                [256, 32, 16, 16]         9,216
│    │    └─BatchNorm2d: 3-149           [256, 32, 16, 16]         64
│    │    └─Sequential: 3-150            [256, 32, 16, 16]         --
│    └─BasicBlock: 2-31                  [256, 32, 16, 16]         --
│    │    └─Conv2d: 3-151                [256, 32, 16, 16]         9,216
│    │    └─BatchNorm2d: 3-152           [256, 32, 16, 16]         64
│    │    └─Conv2d: 3-153                [256, 32, 16, 16]         9,216
│    │    └─BatchNorm2d: 3-154           [256, 32, 16, 16]         64
│    │    └─Sequential: 3-155            [256, 32, 16, 16]         --
│    └─BasicBlock: 2-32                  [256, 32, 16, 16]         --
│    │    └─Conv2d: 3-156                [256, 32, 16, 16]         9,216
│    │    └─BatchNorm2d: 3-157           [256, 32, 16, 16]         64
│    │    └─Conv2d: 3-158                [256, 32, 16, 16]         9,216
│    │    └─BatchNorm2d: 3-159           [256, 32, 16, 16]         64
│    │    └─Sequential: 3-160            [256, 32, 16, 16]         --
│    └─BasicBlock: 2-33                  [256, 32, 16, 16]         --
│    │    └─Conv2d: 3-161                [256, 32, 16, 16]         9,216
│    │    └─BatchNorm2d: 3-162           [256, 32, 16, 16]         64
│    │    └─Conv2d: 3-163                [256, 32, 16, 16]         9,216
│    │    └─BatchNorm2d: 3-164           [256, 32, 16, 16]         64
│    │    └─Sequential: 3-165            [256, 32, 16, 16]         --
│    └─BasicBlock: 2-34                  [256, 32, 16, 16]         --
│    │    └─Conv2d: 3-166                [256, 32, 16, 16]         9,216
│    │    └─BatchNorm2d: 3-167           [256, 32, 16, 16]         64
│    │    └─Conv2d: 3-168                [256, 32, 16, 16]         9,216
│    │    └─BatchNorm2d: 3-169           [256, 32, 16, 16]         64
│    │    └─Sequential: 3-170            [256, 32, 16, 16]         --
│    └─BasicBlock: 2-35                  [256, 32, 16, 16]         --
│    │    └─Conv2d: 3-171                [256, 32, 16, 16]         9,216
│    │    └─BatchNorm2d: 3-172           [256, 32, 16, 16]         64
│    │    └─Conv2d: 3-173                [256, 32, 16, 16]         9,216
│    │    └─BatchNorm2d: 3-174           [256, 32, 16, 16]         64
│    │    └─Sequential: 3-175            [256, 32, 16, 16]         --
│    └─BasicBlock: 2-36                  [256, 32, 16, 16]         --
│    │    └─Conv2d: 3-176                [256, 32, 16, 16]         9,216
│    │    └─BatchNorm2d: 3-177           [256, 32, 16, 16]         64
│    │    └─Conv2d: 3-178                [256, 32, 16, 16]         9,216
│    │    └─BatchNorm2d: 3-179           [256, 32, 16, 16]         64
│    │    └─Sequential: 3-180            [256, 32, 16, 16]         --
├─Sequential: 1-5                        [256, 64, 8, 8]           --
│    └─BasicBlock: 2-37                  [256, 64, 8, 8]           --
│    │    └─Conv2d: 3-181                [256, 64, 8, 8]           18,432
│    │    └─BatchNorm2d: 3-182           [256, 64, 8, 8]           128
│    │    └─Conv2d: 3-183                [256, 64, 8, 8]           36,864
│    │    └─BatchNorm2d: 3-184           [256, 64, 8, 8]           128
│    │    └─LambdaLayer: 3-185           [256, 64, 8, 8]           --
│    └─BasicBlock: 2-38                  [256, 64, 8, 8]           --
│    │    └─Conv2d: 3-186                [256, 64, 8, 8]           36,864
│    │    └─BatchNorm2d: 3-187           [256, 64, 8, 8]           128
│    │    └─Conv2d: 3-188                [256, 64, 8, 8]           36,864
│    │    └─BatchNorm2d: 3-189           [256, 64, 8, 8]           128
│    │    └─Sequential: 3-190            [256, 64, 8, 8]           --
│    └─BasicBlock: 2-39                  [256, 64, 8, 8]           --
│    │    └─Conv2d: 3-191                [256, 64, 8, 8]           36,864
│    │    └─BatchNorm2d: 3-192           [256, 64, 8, 8]           128
│    │    └─Conv2d: 3-193                [256, 64, 8, 8]           36,864
│    │    └─BatchNorm2d: 3-194           [256, 64, 8, 8]           128
│    │    └─Sequential: 3-195            [256, 64, 8, 8]           --
│    └─BasicBlock: 2-40                  [256, 64, 8, 8]           --
│    │    └─Conv2d: 3-196                [256, 64, 8, 8]           36,864
│    │    └─BatchNorm2d: 3-197           [256, 64, 8, 8]           128
│    │    └─Conv2d: 3-198                [256, 64, 8, 8]           36,864
│    │    └─BatchNorm2d: 3-199           [256, 64, 8, 8]           128
│    │    └─Sequential: 3-200            [256, 64, 8, 8]           --
│    └─BasicBlock: 2-41                  [256, 64, 8, 8]           --
│    │    └─Conv2d: 3-201                [256, 64, 8, 8]           36,864
│    │    └─BatchNorm2d: 3-202           [256, 64, 8, 8]           128
│    │    └─Conv2d: 3-203                [256, 64, 8, 8]           36,864
│    │    └─BatchNorm2d: 3-204           [256, 64, 8, 8]           128
│    │    └─Sequential: 3-205            [256, 64, 8, 8]           --
│    └─BasicBlock: 2-42                  [256, 64, 8, 8]           --
│    │    └─Conv2d: 3-206                [256, 64, 8, 8]           36,864
│    │    └─BatchNorm2d: 3-207           [256, 64, 8, 8]           128
│    │    └─Conv2d: 3-208                [256, 64, 8, 8]           36,864
│    │    └─BatchNorm2d: 3-209           [256, 64, 8, 8]           128
│    │    └─Sequential: 3-210            [256, 64, 8, 8]           --
│    └─BasicBlock: 2-43                  [256, 64, 8, 8]           --
│    │    └─Conv2d: 3-211                [256, 64, 8, 8]           36,864
│    │    └─BatchNorm2d: 3-212           [256, 64, 8, 8]           128
│    │    └─Conv2d: 3-213                [256, 64, 8, 8]           36,864
│    │    └─BatchNorm2d: 3-214           [256, 64, 8, 8]           128
│    │    └─Sequential: 3-215            [256, 64, 8, 8]           --
│    └─BasicBlock: 2-44                  [256, 64, 8, 8]           --
│    │    └─Conv2d: 3-216                [256, 64, 8, 8]           36,864
│    │    └─BatchNorm2d: 3-217           [256, 64, 8, 8]           128
│    │    └─Conv2d: 3-218                [256, 64, 8, 8]           36,864
│    │    └─BatchNorm2d: 3-219           [256, 64, 8, 8]           128
│    │    └─Sequential: 3-220            [256, 64, 8, 8]           --
│    └─BasicBlock: 2-45                  [256, 64, 8, 8]           --
│    │    └─Conv2d: 3-221                [256, 64, 8, 8]           36,864
│    │    └─BatchNorm2d: 3-222           [256, 64, 8, 8]           128
│    │    └─Conv2d: 3-223                [256, 64, 8, 8]           36,864
│    │    └─BatchNorm2d: 3-224           [256, 64, 8, 8]           128
│    │    └─Sequential: 3-225            [256, 64, 8, 8]           --
│    └─BasicBlock: 2-46                  [256, 64, 8, 8]           --
│    │    └─Conv2d: 3-226                [256, 64, 8, 8]           36,864
│    │    └─BatchNorm2d: 3-227           [256, 64, 8, 8]           128
│    │    └─Conv2d: 3-228                [256, 64, 8, 8]           36,864
│    │    └─BatchNorm2d: 3-229           [256, 64, 8, 8]           128
│    │    └─Sequential: 3-230            [256, 64, 8, 8]           --
│    └─BasicBlock: 2-47                  [256, 64, 8, 8]           --
│    │    └─Conv2d: 3-231                [256, 64, 8, 8]           36,864
│    │    └─BatchNorm2d: 3-232           [256, 64, 8, 8]           128
│    │    └─Conv2d: 3-233                [256, 64, 8, 8]           36,864
│    │    └─BatchNorm2d: 3-234           [256, 64, 8, 8]           128
│    │    └─Sequential: 3-235            [256, 64, 8, 8]           --
│    └─BasicBlock: 2-48                  [256, 64, 8, 8]           --
│    │    └─Conv2d: 3-236                [256, 64, 8, 8]           36,864
│    │    └─BatchNorm2d: 3-237           [256, 64, 8, 8]           128
│    │    └─Conv2d: 3-238                [256, 64, 8, 8]           36,864
│    │    └─BatchNorm2d: 3-239           [256, 64, 8, 8]           128
│    │    └─Sequential: 3-240            [256, 64, 8, 8]           --
│    └─BasicBlock: 2-49                  [256, 64, 8, 8]           --
│    │    └─Conv2d: 3-241                [256, 64, 8, 8]           36,864
│    │    └─BatchNorm2d: 3-242           [256, 64, 8, 8]           128
│    │    └─Conv2d: 3-243                [256, 64, 8, 8]           36,864
│    │    └─BatchNorm2d: 3-244           [256, 64, 8, 8]           128
│    │    └─Sequential: 3-245            [256, 64, 8, 8]           --
│    └─BasicBlock: 2-50                  [256, 64, 8, 8]           --
│    │    └─Conv2d: 3-246                [256, 64, 8, 8]           36,864
│    │    └─BatchNorm2d: 3-247           [256, 64, 8, 8]           128
│    │    └─Conv2d: 3-248                [256, 64, 8, 8]           36,864
│    │    └─BatchNorm2d: 3-249           [256, 64, 8, 8]           128
│    │    └─Sequential: 3-250            [256, 64, 8, 8]           --
│    └─BasicBlock: 2-51                  [256, 64, 8, 8]           --
│    │    └─Conv2d: 3-251                [256, 64, 8, 8]           36,864
│    │    └─BatchNorm2d: 3-252           [256, 64, 8, 8]           128
│    │    └─Conv2d: 3-253                [256, 64, 8, 8]           36,864
│    │    └─BatchNorm2d: 3-254           [256, 64, 8, 8]           128
│    │    └─Sequential: 3-255            [256, 64, 8, 8]           --
│    └─BasicBlock: 2-52                  [256, 64, 8, 8]           --
│    │    └─Conv2d: 3-256                [256, 64, 8, 8]           36,864
│    │    └─BatchNorm2d: 3-257           [256, 64, 8, 8]           128
│    │    └─Conv2d: 3-258                [256, 64, 8, 8]           36,864
│    │    └─BatchNorm2d: 3-259           [256, 64, 8, 8]           128
│    │    └─Sequential: 3-260            [256, 64, 8, 8]           --
│    └─BasicBlock: 2-53                  [256, 64, 8, 8]           --
│    │    └─Conv2d: 3-261                [256, 64, 8, 8]           36,864
│    │    └─BatchNorm2d: 3-262           [256, 64, 8, 8]           128
│    │    └─Conv2d: 3-263                [256, 64, 8, 8]           36,864
│    │    └─BatchNorm2d: 3-264           [256, 64, 8, 8]           128
│    │    └─Sequential: 3-265            [256, 64, 8, 8]           --
│    └─BasicBlock: 2-54                  [256, 64, 8, 8]           --
│    │    └─Conv2d: 3-266                [256, 64, 8, 8]           36,864
│    │    └─BatchNorm2d: 3-267           [256, 64, 8, 8]           128
│    │    └─Conv2d: 3-268                [256, 64, 8, 8]           36,864
│    │    └─BatchNorm2d: 3-269           [256, 64, 8, 8]           128
│    │    └─Sequential: 3-270            [256, 64, 8, 8]           --
├─Linear: 1-6                            [256, 10]                 650
==========================================================================================
Total params: 1,727,962
Trainable params: 1,727,962
Non-trainable params: 0
Total mult-adds (G): 64.74
==========================================================================================
Input size (MB): 3.15
Forward/backward pass size (MB): 4294.99
Params size (MB): 6.91
Estimated Total Size (MB): 4305.05
…
